Assignment0/mnist_net.pt (torch, 32359 bytes, 2 tensors)

weight f4 [10, 784]
000000 96 10 31 bc 8c 54 36 bc 25 0a 03 bb 30 42 81 3c
       -0.010807177 -0.011128556 -0.001999506 0.015778631
000010 73 20 20 3c ac 9b dd 3a 92 d1 a7 3c 74 07 0a 3d
       0.0097733615 0.0016907356 0.020485673 0.033698514
000020 08 fd c3 bb dc d2 9d 3c e5 4a 7e 3c 8c c0 7a bc
       -0.0059810914 0.019265585 0.015520786 -0.015304696
000030 c2 ac fe bc 82 8c 4b 3a 30 98 96 bc a4 a4 b9 bc
       -0.031088237 0.0007764773 -0.018383116 -0.022661515
000040 ca b2 ca bc 72 86 0d bd 4e 43 c1 bc 87 5b 51 bc
       -0.024743456 -0.034552045 -0.023591664 -0.0127781695
000050 63 ee 52 bb ce e1 a7 3c 07 d7 2e 3c 96 29 8d 3c
       -0.0032185547 0.020493414 0.010671384 0.017231744
000060 ff 79 2d bc 43 a8 9d 3b f6 5d 0e 3d b2 e1 8a 3c
       -0.010588168 0.004811318 0.034757577 0.016953323
000070 da e8 ac 3c 7e 0c 0b bc a1 85 ef 3c 5d 7a 68 bc
       0.021107126 -0.008486865 0.029238524 -0.01418933
000080 61 5f d6 ba c9 02 9f bc 7b 7a 0f bd 76 74 b1 3c
       -0.001635533 -0.019410508 -0.035028916 0.021661978
000090 04 c7 d4 3c b3 5e 66 3c 88 95 88 3b 25 dc 0a bd
       0.025973804 0.014060664 0.004168216 -0.033901352
0000a0 d4 14 c5 bc e3 c0 94 3a ca ee 95 3c cf 03 f9 bb
       -0.024057783 0.0011348989 0.01830234 -0.007599331
0000b0 14 01 c8 bc 3a 4d 6a 3b 4a cc 8b 3c 7b 55 23 bc
       -0.024414577 0.0035751597 0.017065186 -0.009969111
0000c0 c5 bb aa 3c 75 a1 81 bc 7e 60 aa bc de 32 46 3c
       0.020841489 -0.015824059 -0.020797964 0.012097089
0000d0 8f 19 fd bc db b3 3b 3c 7a 70 53 3b 6b 15 02 3d
       -0.030895976 0.011456455 0.0032263086 0.031758707
0000e0 e5 4e a8 bc 30 f4 06 bc 9a e3 a5 bc 9f 42 d2 3b
       -0.020545432 -0.00823693 -0.02025013 0.0064166333
0000f0 10 5c fa bc 38 ad d7 bc 6e cc ec bb 1e 87 0b 3d
       -0.030561477 -0.026327714 -0.0072265184 0.034064405
000100 52 85 e3 bb 2d cb cc bb 3e da 1a bd fc fe 15 bd
       -0.0069433833 -0.0062498064 -0.03780579 -0.036620125
000110 b8 03 92 bb 2e 8d 84 bc 74 53 bb 3b 70 45 06 bd
       -0.0044560097 -0.016180601 0.0057167355 -0.032781065
000120 1c f8 31 bc 57 cf 5c bc c1 4c ff bc 00 b4 07 bc
       -0.010862377 -0.013477168 -0.031164529 -0.008282661
000130 44 70 cf bc 28 a5 e4 3b 61 66 f6 3b ba 2e da bc
       -0.025322087 0.006977696 0.0075195287 -0.02663361
000140 67 2c d0 bc 89 ee e9 bc 21 ff 57 3c 16 e1 cb 3c
       -0.025411798 -0.028556125 0.013183386 0.024887603
000150 c0 64 c1 bc 5e 74 97 bc 2c ed 13 bd c3 81 f4 bc
       -0.023607612 -0.018488105 -0.036114857 -0.029847031
000160 fa 9d 6c 3c e5 ad dc 3b 5f 0a f7 3c 3d 79 75 3c
       0.014441961 0.006734597 0.030156313 0.014982519
000170 df a4 e2 bc e9 04 a3 bb b5 72 6d 3c 81 54 67 bc
       -0.027666507 -0.0049749506 0.01449268 -0.014119268
000180 c2 48 d9 bc 4c c7 37 bc 04 d9 bf bc 85 e4 3e 3a
       -0.026523951 -0.01121695 -0.02341891 0.0007281977
000190 ae 72 24 bd 05 a3 2e bd eb 9a 39 bd 50 9b 3d bd
       -0.04014843 -0.042635936 -0.045313757 -0.046290696
0001a0 05 9e 24 bc 5e 62 30 bd d9 f3 39 bd e7 8d bb bb
       -0.01004744 -0.04306256 -0.045398567 -0.005723703
0001b0 25 1d 40 bc c8 5e f3 bb 99 b8 bf 3c fe 62 dd bc
       -0.011725699 -0.0074270703 0.023403453 -0.027024742
0001c0 29 32 78 bc 74 0f d7 bb 5a fb 24 bc 34 4f ee 3c
       -0.015148678 -0.0065631215 -0.0100696925 0.029090501
0001d0 7f 4d f1 3c 8a 0f ba bc 27 44 5a bc 3c 8d 3f bc
       0.029455898 -0.022712488 -0.013321913 -0.011691388
0001e0 6f 33 37 bd d3 3a 92 3c 48 05 20 3c 7a 8e e0 bc
       -0.044726785 0.017850315 0.009766884 -0.027411688
0001f0 ac 03 8d 3c b8 96 0c bc 09 06 b0 bc ab be 2e 3d
       0.017213665 -0.008580856 -0.021487253 0.042662304
000200 7b d3 05 3c a6 df 6f bc fd 86 3d bd 97 70 a3 bb
       0.008168097 -0.014640724 -0.046271313 -0.004987787
000210 fc 8f 2a bd 46 11 55 bd 9f d7 d8 bc 4d 84 02 bd
       -0.04164122 -0.052018426 -0.026470004 -0.031864453
000220 5b 07 f1 bc 0e c8 4f bb 50 47 b8 3c d2 e3 06 bd
       -0.029422453 -0.0031704935 0.022494942 -0.03293211
000230 f2 e6 d8 3b 6b e2 75 3c 7c 46 af bb 7e 6e a9 3c
       0.0066193277 0.0150075955 -0.0053489786 0.02068257
000240 0f 0d 91 3c bf 18 2a bd c8 a5 b4 bc 50 51 2b bb
       0.017706422 -0.041527506 -0.022051707 -0.0026140995
000250 27 4c 15 bc 3e a2 b7 bc c6 27 02 3c 8c e7 75 3c
       -0.009112394 -0.02241623 0.007944053 0.015008818
000260 3f c9 27 3c 04 27 4a 3d f4 44 76 3d 98 32 8f 3d
       0.010240852 0.049353614 0.060124353 0.06992072
000270 a2 82 b9 3d 3f e6 97 3d 51 15 8a 3d 37 2c fd 3c
       0.09058119 0.07416963 0.06742347 0.030904872
000280 cc d5 35 bc 0d 4c 28 3d 57 01 f7 bc c5 86 5e bd
       -0.011098336 0.041088153 -0.030152006 -0.054327745
000290 6f 82 28 bc 40 08 e1 ba 54 93 fb 3c f5 f3 11 bd
       -0.010285004 -0.0017168596 0.0307099 -0.035633046
0002a0 7e 62 1c bb 06 63 cc 3c 93 88 ac 3c 76 06 a2 bc
       -0.0023862417 0.024949562 0.021061217 -0.019778471
0002b0 0d 00 dd bc aa 3c b9 bc 42 be 1d bd 7c f8 67 bc
       -0.026977563 -0.022611935 -0.038511522 -0.014158364
0002c0 a0 84 84 bd fd ed 9f bd d9 31 ae 3c 99 c5 cf bb
       -0.06470609 -0.078090645 0.021264004 -0.006340694
0002d0 01 d9 f6 3c bc 66 2a 3d d1 7a 38 3d 69 1b 86 3d
       0.030132772 0.04160188 0.045039 0.06548197
0002e0 36 87 9f 3d 63 92 b3 3d 10 39 7f 3d e0 d6 8f 3d
       0.07789461 0.087681554 0.06231028 0.07023406
0002f0 69 6b 7a 3c 4c 4b 66 3d 61 10 eb 3c f9 6b 97 bc
       0.015284398 0.056224152 0.028694334 -0.018484103
000300 c8 db bb ba 84 16 fe bc bc d9 0e bb c4 2d fa bc
       -0.0014332468 -0.031016596 -0.002179726 -0.0305394
000310 e7 18 5f 3b 99 3a 91 ba 3e 59 ee bc bb be 15 bd
       0.0034041943 -0.0011080086 -0.029095288 -0.036558848
000320 5b e8 a4 3b e8 70 1c bd ab 93 10 bd ab 6d a9 bc
       0.0050325817 -0.038193613 -0.035297077 -0.020682177
000330 13 f0 e7 bc ca cb 35 3c 29 15 90 bb e3 db 01 3c
       -0.028312718 0.01109595 -0.0043970537 0.00792596
000340 13 ca 46 3d 05 08 74 3d 12 66 cb 3b 3a 99 95 3d
       0.048532557 0.05957796 0.006207236 0.07304616
000350 4c 78 b4 3d 24 ea e7 3d af 97 c4 3d 81 a8 6c 3d
       0.08812007 0.11323956 0.09599244 0.057777885
000360 aa aa 98 3c 55 b1 09 3d b6 6b 3e 3d 65 05 87 3a
       0.018636066 0.033616383 0.04648944 0.001030129
000370 dc 0c 34 bd 1d e2 55 3b 9e 75 52 bc 00 25 d4 bb
       -0.043957576 0.0032635995 -0.012845425 -0.0064741373
000380 a8 7b eb 3b 04 44 a9 3c 15 9a 96 ba 27 16 d6 bc
       0.007186372 0.020662315 -0.0011490012 -0.02613361
000390 be 62 fa bc f5 73 58 bd 0f b8 a9 bb ae ac ab bc
       -0.030564662 -0.05284496 -0.005179412 -0.020956364
0003a0 7a d6 02 bd aa ec 72 bc 6c ac 7c 3c 0e 18 e2 b9
       -0.031942822 -0.014826933 0.015421968 -0.00043124
0003b0 25 5b 01 bc 57 4e 2e 3d ed b3 be 3c 21 0f 8a 3d
       -0.007895266 0.04255518 0.023279155 0.06741167
0003c0 e2 75 a6 3d 9a e5 0f 3e 62 3f 78 3d b6 39 8f 3d
       0.08127953 0.1405243 0.06060732 0.06993429
0003d0 74 43 7a 3d 66 b3 e6 3c 0f 01 a1 3d 13 39 7f 3d
       0.061099485 0.028161716 0.0786153 0.06231029
0003e0 bc c5 d3 bc 4f 01 30 bd 5d ab 66 bc d1 fe e4 bc
       -0.025851123 -0.042969998 -0.014078942 -0.027953537
0003f0 9b eb 0b bd e2 17 01 bd 0f 49 02 3d fe b9 c3 3b
       -0.034160238 -0.031516917 0.031807955 0.0059730997

bias f4 [10]
000000 92 54 e3 3c c1 93 b1 3b 23 3c b8 3c 3c 72 a1 3c
       0.027750287 0.005419225 0.022489613 0.019707792
000010 c2 78 a7 bc 18 3a 1e 3d e7 ce 3f 3a 80 f4 9c bc
       -0.020443324 0.03862962 0.00073169026 -0.019159555
000020 a3 cb 1c bb 06 dd df 3b
       -0.0023925088 0.006831768
